selenium/optimization_guide_model_store/20/A3BFD4A403A877EC/7A1134C0FB2FAC19/model.tflite (tflite, 64852 bytes, 5 tensors)

arith.constant f4 [1, 64]
0.14000495 0.3422687 -0.31887805 0.5947322 0.28434137 0.063590676 0.2762166 -0.057417188
-0.08309165 -0.16119699 -0.027614372 -0.11476325 0.032128144 0.12982827 0.1444662 0.039923605
-0.051884428 -0.20429568 -0.02200478 -0.28930545 -0.029650025 0.15773378 -0.07297419 0.30420908
0.33392942 0.21027409 -0.12755986 -0.1455925 0.26180995 -0.23943894 0.17501113 -0.09009199
0.279135 -0.23067541 -0.15865338 -0.13305624 0.36584246 0.15328504 -0.26673025 -0.14487423
-0.18043153 0.04801336 -0.23283376 0.42540422 -0.1030437 0.16331933 0.2670568 0.082956366
-0.07201735 0.2182905 -0.22442043 -0.20353018 -0.3396677 0.025437517 -0.23156665 -0.22455294
0.24380171 -0.15328348 0.080291964 0.21529427 0.09036331 0.046841457 -0.23557752 -0.21591541
00000000: 755d 0f3e d83d af3e fc43 a3be 5f40 183f
00000010: 3195 913e d43b 823d 436c 8d3e 492e 6bbd
00000020: f42b aabd d310 25be 8937 e2bc ff08 ebbd
00000030: cd98 033d b4f1 043e f3ee 133e ef86 233d
00000040: c484 54bd e332 51be 5e43 b4bc d81f 94be
00000050: 9ce4 f2bc f784 213e 7e73 95bd 4bc1 9b3e
00000060: ccf8 aa3e 1752 573e 0d9f 02be 3316 15be
00000070: f40b 863e 7b2f 75be 1e36 333e 2682 b8bd
00000080: c8ea 8e3e 2d36 6cbe 0876 22be e53f 08be
00000090: b44f bb3e c1f6 1c3e de90 88be e959 14be
000000a0: 0bc3 38be a8a9 443d f96b 6ebe 95ce d93e
000000b0: 9308 d3bd 2f3d 273e abbb 883e 07e5 a93d
000000c0: d57d 93bd 8b87 5f3e 78ce 65be 376a 50be
000000d0: ede8 adbe 5762 d03c cf1f 6dbe 35f1 65be
000000e0: 28a7 793e 58f6 1cbe 1d70 a43d 1a76 5c3e
000000f0: 6610 b93d d4dc 3f3d 3c3b 71be ee18 5dbe

arith.constant1 f4 [64, 128]
0.07943121 0.13883924 -0.062825955 -0.061016753 0.12808704 0.08389021 0.14176819 -0.1668697
0.062837586 -0.10005701 -0.20597778 -0.114530966 0.025389481 0.0050520995 -0.111008026 0.064887755
-0.0066463677 -0.003776833 0.006216679 0.031507816 0.06636837 0.13622528 -0.11609185 -0.160043
-0.028156536 0.17927693 0.052085195 -0.0077590486 -0.14349942 -0.010040033 0.080068946 0.087326646
-0.011991953 0.0031586 0.01992016 -0.1470819 0.07696766 -0.11763877 -0.039220497 -0.070882745
0.05631462 0.095470116 -0.089256875 0.072961554 0.10624971 0.082535826 -0.051979914 -0.008984729
0.087481976 -0.19255412 0.008060535 -0.09152848 0.06469944 -0.094835855 -0.057836156 -0.113298155
0.11201334 -0.05059853 0.057165165 -0.13992913 0.08492824 0.094300136 0.07066792 -0.07135026
-0.06871288 0.030005379 -0.15876825 -0.0410894 0.09857732 -0.014050025 -0.101853654 0.032089584
-0.1348825 -0.1327977 -0.11459877 -0.12544276 0.13221645 -0.007996251 -0.043238577 0.14010485
0.09623306 -0.19364111 -0.078874536 -0.02921808 0.18073562 0.1793773 -0.20140626 0.13017884
-0.05961791 0.16062357 0.1760414 -0.16993657 -0.12283071 -0.19121404 0.16152439 -0.101919316
0.16978629 -0.15264827 -0.029244881 0.07330901 0.13591595 -0.070023395 0.011059329 0.15184514
-0.078573294 0.0027084127 0.16295303 -0.04581699 0.054065857 0.08769583 0.16168861 0.12970996
0.113767475 0.18675615 -0.04624369 -0.08791104 0.15836221 -0.17139788 0.02727194 -0.08324562
0.07570983 -0.16024394 0.0252176 -0.09512653 0.08890133 -0.09946397 0.108053096 -0.065198086
-0.20349081 0.0176232 -0.16937366 -0.031852584 0.10110202 -0.0326665 0.18467815 -0.117196046
0.023072971 -0.049905557 0.040136985 0.07553722 0.11258289 -0.13174963 0.0257316 -0.030569809
-0.027223514 0.07450879 0.14438267 0.022550408 -0.030541424 -0.030706212 0.1200427 0.09460947
0.16077363 0.021191938 -0.16587597 0.053088233 -0.0050561484 0.08694857 0.22259724 -0.06445908
0.09883892 0.050377212 0.03642673 0.019717308 0.009780706 -0.012122578 -0.11147829 -0.111752406
0.052308172 0.15642507 0.16359685 0.021480335 0.1612727 -0.14940912 -0.036838505 -0.06877934
-0.2136857 -0.1357618 0.07688105 0.114222564 0.12689725 -0.13100982 -0.092401184 -0.19302213
-0.0580554 0.15712762 0.09159677 -0.08145862 -0.054714788 0.1366663 -0.028164558 0.1945815
-0.037896592 0.103915624 0.21432191 -0.11896979 0.10951493 -0.17774315 0.090608634 0.12545805
-0.18350133 -0.20818192 -0.065362304 0.12888262 0.17615178 0.1088179 -0.00086238503 -0.1047082
-0.007265503 0.0060353633 0.006194244 0.14183289 0.079151735 0.14914297 -0.030242974 -0.14474002
-0.010732024 0.03872631 0.03901864 0.08657746 -0.16439494 -0.22670889 0.138625 -0.11327736
0.19139339 -0.13361788 -0.13557272 0.014274355 0.02125341 0.006771 -0.023640567 -0.11903806
0.04855021 0.046797737 0.039074197 -0.08197822 0.15146597 0.038138315 0.073451556 0.09116896
0.19611345 -0.048268788 -0.06755583 -0.03836882 0.078751996 -0.17005162 0.057649165 -0.16140142
-0.04459632 -0.030788595 -0.05242212 -0.049929637 0.13807125 -0.03498732 -0.007986223 0.06488432
00000000: d5ac a23d e02b 0e3e e5aa 80bd b4ec 79bd
00000010: 4029 033e a1ce ab3d ae2b 113e e4df 2abe
00000020: feb0 803d b1ea ccbd d7eb 52be 368f eabd
00000030: 9afd cf3c 158c a53b 2d58 e3bd dfe3 843d
00000040: c6c9 d9bb be84 77bb 48b5 cb3b 570e 013d
00000050: 24ec 873d a47e 0b3e 90c1 edbd 50e2 23be
00000060: 89a8 e6bc 5f94 373e 4957 553d 9e3f febb
00000070: 83f1 12be f37e 24bc 30fb a33d 50d8 b23d
00000080: e579 44bc 8400 4f3b 9a2f a33c a39c 16be
00000090: 38a1 9d3d 98ec f0bd aca5 20bd f92a 91bd
000000a0: 29aa 663d d685 c33d 4fcc b6bd de6c 953d
000000b0: 7399 d93d 8b08 a93d e4e8 54bd af34 13bc
000000c0: c029 b33d e82c 45be 5610 043c 4973 bbbd
000000d0: 2481 843d 4d39 c2bd 9be5 6cbd dd08 e8bd
000000e0: 4067 e53d 6740 4fbd 0526 6a3d 9549 0fbe
000000f0: dbee ad3d 6e20 c13d 58ba 903d 1620 92bd
00000100: 57b9 8cbd d7cd f53c 2594 22be 5c4d 28bd
00000110: e8e2 c93d 1332 66bc a698 d0bd 5e70 033d
00000120: a31e 0abe 1ffc 07be c3b2 eabd 1174 00be
00000130: c063 073e b502 03bc ef1a 31bd a577 0f3e
00000140: d715 c53d db49 46be f988 a1bd c15a efbc
00000150: c212 393e afae 373e 713d 4ebe 9a4d 053e
00000160: e931 74bd 817a 243e 3244 343e da03 2ebe
00000170: ab8e fbbd 9dcd 43be a666 253e 13bb d0bd
00000180: 75dc 2d3e d44f 1cbe f692 efbc 0923 963d
00000190: 8d2d 0b3e 6d68 8fbd 3032 353c 4b7d 1b3e
000001a0: 09eb a0bd a07f 313b 29dd 263e 99aa 3bbd
000001b0: 2974 5d3d df99 b33d b391 253e b0d2 043e
000001c0: ecfe e83d 013d 3f3e 066a 3dbd b40a b4bd
000001d0: b429 223e ed82 2fbe 6769 df3c ae7c aabd
000001e0: c10d 9b3d fd16 24be 2495 ce3c b3d1 c2bd
000001f0: e711 b63d c4b3 cbbd f14a dd3d 9386 85bd
00000200: e55f 50be 875e 903c 4a70 2dbe db77 02bd
00000210: 930e cf3d 4fcd 05bd 451c 3d3e 7b04 f0bd
00000220: 8703 bd3c c569 4cbd ae66 243d 42b3 9a3d
00000230: dc91 e63d 60e9 06be 14cb d23c 896d fabc
00000240: d903 dfbc 1198 983d 0dd9 133e a2bb b83c
00000250: 0232 fabc 988b fbbc f2d8 f53d 9cc2 c13d
00000260: d8a1 243e b79a ad3c 64db 29be 0c73 593d
00000270: 0cae a5bb 1812 b23d 88f0 633e 1f03 84bd
00000280: 0f6c ca3d 5658 4e3d 3234 153d 3186 a13c
00000290: 413f 203c c79d 46bc bb4e e4bd 72de e4bd
000002a0: 1841 563d e52d 203e ef85 273e 87f7 af3c
000002b0: ac24 253e b4fe 18be f9e3 16bd 2fdc 8cbd
000002c0: 6dd0 5abe 2405 0bbe d073 9d3d 85ed e93d
000002d0: 5af1 013e 7027 06be d53c bdbd 98a7 45be
000002e0: 80cb 6dbd 10e6 203e 1697 bb3d c7d3 a6bd
000002f0: 9d1c 60bd 40f2 0b3e 5cb9 e6bc 5f40 473e
00000300: 7539 1bbd b7d1 d43d 3477 5b3e 6fa6 f3bd
00000310: 5d49 e03d 4d02 36be 0591 b93d 1378 003e
00000320: c6e7 3bbe a42d 55be acdc 85bd cef9 033e
00000330: 2261 343e ebdb de3d ae11 62ba 4171 d6bd
00000340: 7513 eebb 4cc4 c53b 16f9 ca3b a43c 113e
00000350: 4e1a a23d efb8 183e 1dc0 f7bc ba36 14be
00000360: 5fd5 2fbc 7b9f 1e3d 02d2 1f3d 864f b13d
00000370: 2657 28be 6026 68be b6f3 0d3e f6fd e7bd
00000380: a1fc 433e 20d3 08be 93d3 0abe fcde 693c
00000390: a21b ae3c 44df dd3b dda9 c1bc 3aca f3bd
000003a0: 96dc 463d fcae 3f3d 440c 203d 32e4 a7bd
000003b0: e519 1b3e ec36 1c3d c56d 963d cbb6 ba3d
000003c0: f7d1 483e 7eb5 45bd b65a 8abd a028 1dbd
000003d0: ba48 a13d 0322 2ebe 8821 6c3d 6a46 25be
000003e0: a1aa 36bd 5d38 fcbc 94b8 56bd 0583 4cbd
000003f0: 8d62 0d3e dd4e 0fbd a6d8 02bc 12e2 843d

arith.constant2 f4 [128, 12]
-0.06974127 -0.115794234 -0.0072204797 0.06968825 -0.18729763 0.12494282 0.113129996 0.12036482
-0.093707375 -0.13979125 0.14475115 -0.13510177 0.09142615 0.010520388 0.047610298 0.20237137
-0.041259553 0.07270837 -0.24054444 0.13951106 0.06757875 0.030616414 -0.03352046 0.23150633
0.061712965 -0.17363921 0.067386515 -0.04788499 0.15239407 -0.08047723 0.15515642 0.08075415
-0.0656172 -0.002844419 0.13104025 -0.08533847 -0.010813716 -0.0102799125 -0.20253552 0.13215868
0.08810379 -0.05992836 -0.17357656 0.01617374 -0.1281035 -0.050772056 0.014026148 0.109533824
-0.018821744 0.020677477 -0.24281426 -0.14760226 0.14424448 0.18520783 -0.16368078 -0.11756492
-0.06338104 0.000595361 0.10800928 -0.0043499656 0.031833358 0.11933223 0.026293483 -0.03633647
0.106003106 0.04418653 -0.09047984 0.073740564 -0.047211874 -0.16991454 -0.21728379 0.033772074
0.09302485 0.2137222 -0.2249941 0.06890981 -0.05422661 -0.10904699 0.12341032 0.0073566814
-0.08555168 0.08983974 0.05865607 -0.04872073 -0.20602553 0.005238092 -0.19318087 -0.15930592
-0.15642032 -0.0100012375 -0.062455554 -0.20156361 0.10637055 0.16232908 0.030843694 -0.073699765
-0.072206676 -0.13683961 0.17793925 -0.013218432 0.14952454 0.05271012 -0.13471623 0.109850556
-0.09407008 0.15239787 0.26146802 -0.027080918 -0.10787798 -0.01627701 -0.026271453 -0.011058206
0.09121266 -0.07502032 0.049914204 -0.039642345 -0.25637913 0.19710425 0.10723142 0.09472236
0.061026033 -0.057922114 0.031610113 -0.14401108 0.020603882 -0.17837055 0.06683819 0.03788539
-0.09244285 0.1070291 -0.22139382 -0.11136506 0.12561028 0.18094356 -0.14044778 -0.05068047
0.10542651 0.14094166 0.032593485 -0.19605394 -0.15465657 -0.094030246 -0.08231683 0.17247947
0.13853157 0.15357307 0.16248101 -0.01602077 0.032486618 0.047188528 0.1064627 0.12813395
-0.15746571 -0.00653488 -0.0061744186 0.19452521 0.08491743 0.014409823 -0.19017799 0.14926803
0.15718089 0.015900765 -0.006181244 -0.02364644 -0.2078692 -0.09101562 0.026729193 0.10928799
0.027599618 0.04413342 0.19115415 0.10196537 0.021778585 -0.012541234 0.09915097 0.17930909
0.14919643 -0.02514668 -0.23433426 -0.17270748 -0.1217469 -0.08921406 0.25922352 0.10783387
0.19562986 -0.009945971 -0.12803261 0.16745375 -0.062295876 -0.10218009 -0.106876366 0.14195094
0.003960169 0.1069444 -0.19462204 -0.008248672 0.09287118 0.10125002 -0.13225725 -0.056085914
0.211479 -0.01749791 0.10028546 -0.21519697 -0.09147646 -0.18481198 0.1329401 0.039453868
-0.044143483 -0.11406633 -0.039458945 -0.0061828718 0.00678157 -0.13663554 -0.1461976 -0.10699724
0.061811104 0.09124741 -0.05209215 0.011235118 0.14138168 0.21667767 -0.037250422 0.13494773
0.0023679258 -0.07627782 0.13918303 0.1399459 -0.09626096 -0.040628903 0.12750158 -0.14038847
-0.17673782 0.22781205 0.011519976 0.03087826 -0.1514829 -0.18178123 -0.008127409 0.1534654
-0.039376233 -0.10625422 0.11704381 -0.035257205 -0.08327379 -0.069850355 -0.25188962 0.12990108
0.19204926 -0.1936043 0.09225439 -0.20888537 0.19257674 0.01248478 0.06279976 0.15778585
00000000: 83d4 8ebd 8725 edbd c699 ecbb b7b8 8e3d
00000010: f3ca 3fbe 05e2 ff3d b3b0 e73d d581 f63d
00000020: a7e9 bfbd 7025 0fbe a539 143e 1e58 0abe
00000030: a23d bb3d b55d 2c3c 0403 433d 713a 4f3e
00000040: c7ff 28bd 20e8 943d 4851 76be fddb 0e3e
00000050: ba66 8a3d 46cf fa3c c04c 09bd ff0f 6d3e
00000060: bcc6 7c3d 7ace 31be f101 8a3d 0d23 44bd
00000070: 310d 1c3e 3fd1 a4bd 53e1 1e3e 6f62 a53d
00000080: 5062 86bd 6f69 3abb 6a2f 063e f0c5 aebd
00000090: 032c 31bc 146d 28bc 7965 4fbe 9b54 073e
000000a0: c36f b43d 7177 75bd 0ebe 31be cb7e 843c
000000b0: 902d 03be 5cf6 4fbd eecd 653c 4553 e03d
000000c0: 0f30 9abc d063 a93c 4da4 78be 0c25 17be
000000d0: d3b4 133e 1fa7 3d3e ef9b 27be e0c5 f0bd
000000e0: ebcd 81bd 0012 1c3a f833 dd3d 288a 8ebb
000000f0: b263 023d 7564 f43d 6e65 d73c 8dd5 14bd
00000100: 2818 d93d effc 343d 7f4d b9bd 4b05 973d
00000110: 3d61 41bd 14fe 2dbe a47f 5ebe 9654 0a3d
00000120: d083 be3d fed9 5a3e da64 66be 9620 8d3d
00000130: b91c 5ebd 0754 dfbd 8dbe fc3d 5110 f13b
00000140: b835 afbd e6fd b73d 5941 703d 638f 47bd
00000150: 5bf8 52be 4da4 ab3b 35d1 45be 1721 23be
00000160: a62c 20be 3bdc 23bc 65d1 7fbd b166 4ebe
00000170: ced8 d93d 9839 263e eaab fc3c e7ef 96bd
00000180: 18e1 93bd af1f 0cbe b535 363e 1f92 58bc
00000190: f61c 193e 91e6 573d 0df3 09be 54f9 e03d
000001a0: d0a7 c0bd 300e 1c3e 23df 853e cdd8 ddbc
000001b0: 21ef dcbd 5d57 85bc 3b37 d7bc 7a2d 35bc
000001c0: b4cd ba3d 41a4 99bd d672 4c3d 0360 22bd
000001d0: 2044 83be b2d5 493e 269c db3d ccfd c13d
000001e0: 6ff6 793d bd3f 6dbd 9b79 013d a477 13be
000001f0: 79c9 a83c c5a6 36be 76e2 883d b62d 1b3d
00000200: ad52 bdbd 1332 db3d 10b5 62be 5d13 e4bd
00000210: fb9f 003e 4549 393e 8bd1 0fbe 5396 4fbd
00000220: dbe9 d73d 0353 103e bf80 053d 5dc2 48be
00000230: 4b5e 1ebe ee92 c0bd ba95 a8bd 759e 303e
00000240: 38db 0d3e 4242 1d3e 6c61 263e fd3d 83bc
00000250: b010 053d c248 413d 1e09 da3d 8c35 033e
00000260: b13e 21be 8c22 d6bb c752 cabb 9e31 473e
00000270: 31e9 ad3d 2e17 6c3c 05be 42be b8d9 183e
00000280: 07f4 203e 5242 823c 088c cabb 2eb6 c1bc
00000290: aadb 54be 6666 babd 2ef7 da3c 62d2 df3d
000002a0: 9818 e23c 3fc5 343d eabd 433e 38d3 d03d
000002b0: 0169 b23c bf79 4dbc aa0f cb3d cd9c 373e
000002c0: f3c6 183e 6900 cebc 52f5 6fbe 3bda 30be
000002d0: 7056 f9bd dcb5 b6bd f2b8 843e 01d8 dc3d
000002e0: 3253 483e 6df4 22bc fb1a 03be ff78 2b3e
000002f0: f629 7fbd cc43 d1bd ffe1 dabd 965b 113e
00000300: 4ec4 813b aa05 db3d 004b 47be 7025 07bc
00000310: 3f33 be3d 2c5c cf3d 726e 07be 58ba 65bd
00000320: f38d 583e c757 8fbc 7762 cd3d 985c 5cbe
00000330: 0358 bbbd 5a3f 3dbe 7321 083e 619a 213d
00000340: cccf 34bd 9c9b e9bd b49f 21bd b099 cabb
00000350: ef37 de3b 30ea 0bbe d3b4 15be 5e21 dbbd
00000360: a42d 7d3d ecdf ba3d 945e 55bd 8013 383c
00000370: 5cc6 103e c0e0 5d3e e693 18bd bd2f 0a3e
00000380: 342f 1b3b 8c37 9cbd ff85 0e3e fa4d 0f3e
00000390: 7724 c5bd 7e6a 26bd c68f 023e ffc1 0fbe
000003a0: c2fa 34be 9047 693e 48be 3c3c 68f4 fc3c
000003b0: 551e 1bbe dc24 3abe d328 05bc 0926 1d3e
000003c0: f948 21bd d09b d9bd aab4 ef3d dc69 10bd
000003d0: 738b aabd b40d 8fbd adf7 80be ca04 053e
000003e0: 90a8 443e 3540 46be dfef bc3d 0ce6 55be
000003f0: d632 453e f68c 4c3c 299d 803d 9d92 213e

arith.constant29 f4 [64]
-0.020641845 -0.050580297 0.037044667 -0.1888584 0.04219894 -0.0002336372 -0.08598338 -0.01118674
-0.057734307 -0.0005957021 -0.01925712 -0.050845608 0.0042955987 0.014506469 0.057920214 -2.9933915e-05
-0.022554738 -0.045405723 -0.0020748333 0.011354293 0.010203878 0.028768845 -0.008507242 0.08386234
0.074135505 0.040068872 -0.03960863 -0.011930186 0.07884635 -0.09975628 0.049032804 -0.037043776
0.051201656 0.06098497 -0.010093203 0.011262453 0.091009595 0.06385646 -0.06775791 -0.005084844
-0.07587504 -0.0138535425 -0.0049900822 -0.16559167 0.0055646407 -0.029974537 0.05209341 0.0031778705
-0.0066304957 0.043246817 -0.016414497 -0.027306126 -0.055815674 -0.019480873 -0.064810045 -0.011325995
0.06124206 0.01348984 0.010522516 0.005507535 -0.026415704 -0.023390984 -0.029375315 -0.087475024
00000000: 1619 a9bc 492d 4fbd 26bc 173d 1964 41be
00000010: ccd8 2c3d 82fc 74b9 0e18 b0bd 9748 37bc
00000020: cf7a 6cbd e428 1cba 1cc1 9dbc 7c43 50bd
00000030: 18c2 8c3b 8aac 6d3c bf3d 6d3d 981a fbb7
00000040: b7c4 b8bc 5afb 39bd edf9 07bb 5b07 3a3c
00000050: 2b2e 273c a4ac eb3c f661 0bbc 05c0 ab3d
00000060: 5bd4 973d 421f 243d a93c 22bd d476 43bc
00000070: 327a a13d 054d ccbd 9fd6 483d 37bb 17bd
00000080: d4b8 513d 60cb 793d f65d 25bc 2786 383c
00000090: 3d63 ba3d 2dc7 823d a9c4 8abd c39e a6bb
000000a0: 5f64 9bbd f8f9 62bc d883 a3bb dd90 29be
000000b0: 9757 b63b 298d f5bc e65f 553d d243 503b
000000c0: a144 d9bb 9323 313d b277 86bc 19b1 dfbc
000000d0: fa9e 64bd 5a96 9fbc 21bb 84bd ab90 39bc
000000e0: f4d8 7a3d 7d04 5d3c a266 2c3c 8d78 b43b
000000f0: bf65 d8bc 739e bfbc 80a4 f0bc 1b26 b3bd

arith.constant30 f4 [128]
0.09967387 -0.009082654 -0.020739043 -0.009391449 -0.057726353 -0.0049585854 -0.091927655 0.041222896
0.13364533 0.05591019 0.02329703 0.020624893 0.009246216 0.050917998 -0.007050827 -0.017215509
-0.086761825 0.005461537 0.017669542 -0.0029723945 0.03092261 0.00015722463 0.11074776 0.0035456112
-0.07467394 -0.09999822 0.010995074 0.026685927 0.059761353 -0.050960902 0.0030801683 -0.023514153
-0.08950371 0.0007935243 0.06844337 -0.017887883 -0.04313235 0.093437426 0.048696615 -0.099544965
-0.14641725 -0.014206004 -0.076785974 -0.12786186 -0.07939369 0.03403133 -0.046195023 0.0070868935
0.10424558 0.052681707 -0.027020702 0.0009530731 -0.009053081 -0.09223564 -0.04527986 0.028982086
0.025512457 -0.008775632 0.0066946303 -0.024067823 0.04570005 -0.05497035 -0.05550095 -0.026587041
-0.09285145 0.014311696 -0.0059433263 0.0063381484 0.08659516 0.058026068 -0.05324029 -0.11748911
0.026900623 0.015188802 -0.020951483 -0.09854246 -0.09543568 0.008954353 -0.16612998 0.030772798
0.08200227 0.06551162 -0.024831532 0.09417044 -0.059856404 -0.1109317 0.060832646 0.04841555
-0.037267774 0.01723218 -0.056443233 -0.003608167 0.08297003 -0.004570264 0.0140852425 -0.047541056
-0.1646766 0.0012975372 0.097178325 -0.032417424 -0.12073856 -0.09096023 -0.09112815 -0.06456751
-0.0088631315 0.004528638 -0.01198414 -0.037623156 0.0681951 -0.16189452 -0.032119714 -0.018176118
-0.09987627 0.07168607 0.012206512 -0.0077038035 -0.045051698 -0.07270072 -0.07990352 0.006083741
-0.024264222 -0.015386305 -0.02648216 -0.063285194 -0.06547643 -0.19200805 0.013605884 0.016154017
00000000: d021 cc3d 69cf 14bc ede4 a9bc 98de 19bc
00000010: 7872 6cbd a17b a2bb 9144 bcbd 57d9 283d
00000020: 52da 083e 1502 653d 6ad9 be3c 89f5 a83c
00000030: 717d 173c 648f 503d a00a e7bb 8a07 8dbc
00000040: 2fb0 b1bd b1f6 b23b b7bf 903c 81cc 42bb
00000050: 6a51 fd3c aadc 2439 b9cf e23d 7c5d 683b
00000060: a7ee 98bd decb ccbd af24 343c 729c da3c
00000070: 52c8 743d 61bc 50bd a6dc 493b c1a0 c0bc
00000080: b94d b7bd 8404 503a 0a2c 8c3d 9c89 92bc
00000090: 8cab 30bd 1f5c bf3d 1a76 473d 3bde cbbd
000000a0: 67ee 15be 4dc0 68bc f741 9dbd 38ee 02be
000000b0: 2999 a2bd 7064 0b3d fe36 3dbd 2c39 e83b
000000c0: b57e d53d c6c8 573d 855a ddbc a7d7 793a
000000d0: 6053 14bc 0ae6 bcbd 6077 39bd d76b ed3c
000000e0: 80ff d03c abc7 0fbc a15e db3b e229 c5bc
000000f0: fa2f 3b3d 9728 61bd f754 63bd 11cd d9bc
00000100: e728 bebd 9b7b 6a3c 3cc0 c2bb 3eb0 cf3b
00000110: ce58 b13d beac 6d3d 7e12 5abd 219e f0bd
00000120: b25e dc3c 74da 783c 72a2 abbc a1d0 c9bd
00000130: c873 c3bd 47b5 123c fa1d 2abe 3c17 fc3c
00000140: cef0 a73d f52a 863d 7f6b cbbc 6fdc c03d
00000150: fd2b 75bd 2930 e3bd a72b 793d 624f 463d
00000160: 18a6 18bd 802a 8d3c 0531 67bd ff76 6cbb
00000170: 31ec a93d 27c2 95bb cac5 663c 69ba 42bd
00000180: fca0 28be 2012 aa3a 6e05 c73d 22c8 04bd
00000190: c745 f7bd 5b49 babd 65a1 babd f83b 84bd
000001a0: ab36 11bc f864 943b 2059 44bc bd1a 1abd
000001b0: dfa9 8b3d adc7 25be f68f 03bd 15e6 94bc
000001c0: ee8b ccbd 25d0 923d d2fd 473c 3070 fcbb
000001d0: 2188 38bd 1de4 94bd 75a4 a3bd 1e5a c73b
000001e0: c3c5 c6bc d716 7cbc 1df1 d8bc ab9b 81bd
000001f0: 8218 86bd c29d 44be 37eb 5e3c 6e55 843c
